save_models/Pulp_Future_Price_nn_2024-12-19-01-09/model.pth (torch, 18808 bytes, 25 tensors)

model.0.weight f4 [8]
0.8903786 1.0755213 0.9134699 0.81001955 0.7959067 0.6848977 0.8711524 0.6664198
00000000: daef 633f afaa 893f 2ad9 693f 715d 4f3f
00000010: 8bc0 4b3f 7555 2f3f d803 5f3f 7d9a 2a3f

model.0.bias f4 [8]
-0.12384002 -0.034447156 -0.113991626 0.021509806 -0.031008964 0.044283196 -0.011492243 0.020911822
00000000: d69f fdbd 7618 0dbd 7174 e9bd 5535 b03c
00000010: 8306 febc 4c62 353d f649 3cbc 454f ab3c

model.0.running_mean f4 [8]
0.14743699 0.14985925 0.14952652 -0.36147663 0.047462467 2021.9515 6.73871 16.241392
00000000: b9f9 163e b474 193e 7b1d 193e 7713 b9be
00000010: 0168 423d 73be fc44 83a3 d740 5fee 8141

model.0.running_var f4 [8]
0.14745905 0.14271896 0.14791447 0.042426102 0.9711085 0.04311288 5.2695465 71.0985
00000000: 81ff 163e eb24 123e e476 173e fec6 2d3d
00000010: 919a 783f 2297 303d 20a0 a840 6f32 8e42

model.1.weight f4 [16, 8]
0.27050573 0.370562 0.025232986 0.26778713 -0.056966737 0.010848371 -0.06872994 0.030694023
0.31996912 -0.120954745 0.3313131 0.093931936 0.27827743 0.017371092 0.1476762 -0.04981764
0.31358135 0.22056876 0.043312714 0.20793311 -0.07986305 0.04595306 -0.098655336 0.14886782
-0.28369313 -0.1932541 -0.15672946 -0.054455504 0.042313132 -0.041996155 0.2515037 -0.11645609
0.2174429 -0.028524382 -0.13980876 0.28879517 -0.00978416 0.19276181 0.22865453 -0.15120995
0.06605171 -0.1784048 0.100782275 0.33619952 -0.0046623726 0.015539783 0.30152535 0.0875888
0.10106301 -0.19236648 -0.29021192 -0.012345176 -0.1869298 0.059219565 0.25998005 0.04643576
0.1086174 0.056342933 0.3227752 -0.063079745 -0.04889827 -0.11229225 -0.008255936 -0.07036278
0.056538858 -0.06832565 0.20330681 -0.12514324 -0.3325584 -0.11450867 0.26303938 0.01824291
0.15510122 -0.40227666 -0.40416405 0.119779006 -0.11494555 -0.016588 0.07505726 0.10914894
-0.26348057 -0.30428067 0.086989455 0.067156434 0.13955772 -0.101878695 0.14409432 -0.047912277
-0.13053666 0.13822462 0.07926416 -0.063810885 0.19660518 0.32398444 -0.22572945 -0.17320094
0.18382318 -0.21876623 -0.2519944 -0.19791888 -0.23746237 -0.0105397515 0.024933297 -0.2128234
-0.11506033 -0.27711573 -0.27950385 0.01591684 -0.11414842 -0.03021081 0.20068361 0.22676675
0.18133135 -0.33020782 -0.0461894 0.2050624 0.13996243 -0.17272948 -0.15873584 -0.17837629
-0.13954224 -0.25115272 -0.18662247 -0.07474612 -0.18976378 -0.19526006 -0.114274375 -0.20901698
00000000: ba7f 8a3e 4dba bd3e 68b5 ce3c 651b 893e
00000010: f455 69bd 5ebd 313c 48c2 8cbd 0872 fb3c
00000020: fed2 a33e 1fb7 f7bd dfa1 a93e 635f c03d
00000030: 617a 8e3e d24d 8e3c 6e38 173e 950d 4cbd
00000040: bc8d a03e c7dc 613e ac68 313d 6bec 543e
00000050: 3d8f a3bd 4739 3c3d cf0b cabd ce70 183e
00000060: 3a40 91be 67e4 45be b07d 20be bc0c 5fbd
00000070: 8950 2d3d 2904 2cbd 18c5 803e 8880 eebd
00000080: 5aa9 5e3e f7ab e9bc 072a 0fbe f6dc 933e
00000090: be4d 20bc 5a63 453e 6a24 6a3e c8d6 1abe
000000a0: 1e46 873d bfaf 36be f066 ce3d 5822 ac3e
000000b0: d1c6 98bb 939a 7e3c 8861 9a3e c261 b33d
000000c0: 20fa ce3d b8fb 44be a896 94be 6c43 4abc
000000d0: 876a 3fbe 3790 723d 1b1c 853e 6c33 3e3d
000000e0: cd72 de3d d9c7 663d ca42 a53e f42f 81bd
000000f0: 8d49 48bd 7bf9 e5bd e843 07bc 5c1a 90bd
00000100: 4a95 673d 52ee 8bbd a92f 503e 8d25 00be
00000110: 1845 aabe 8683 eabd 19ad 863e 2872 953c
00000120: dbd2 1e3e 35f7 cdbe 97ee cebe b24e f53d
00000130: 9368 ebbd 8fe3 87bc 9fb7 993d 7b89 df3d
00000140: ede6 86be adca 9bbe 8727 b23d 5089 893d
00000150: 38e8 0e3e c7a5 d0bd 768d 133e aa3f 44bd
00000160: 67ab 05be c18a 0d3e 3f55 a23d 48af 82bd
00000170: de52 493e 4ae1 a53e 9f25 67be 965b 31be
00000180: 253c 3c3e 4104 60be 6905 81be 3fab 4abe
00000190: 5629 73be ecae 2cbc ea40 cc3c 61ee 59be
000001a0: c0a4 ebbd 1de2 8dbe 211b 8fbe 0864 823c
000001b0: a6c6 e9bd a97c f7bc 0180 4d3e 8b35 683e
000001c0: edae 393e 0011 a9be 1931 3dbd e1fb 513e
000001d0: 5052 0f3e ffdf 30be a68b 22be 46a8 36be
000001e0: 29e4 0ebe 1797 80be f619 3fbe 7e14 99bd
000001f0: 7051 42be 41f2 47be af08 eabd 8c08 56be

model.1.bias f4 [16]
-0.31356233 -0.11906699 0.01116439 0.04512167 -0.19797526 0.007558652 0.01842875 -0.30867895
-0.24959327 -0.37760967 -0.0059179342 -0.16968815 -0.04931432 -0.16209415 -0.010525256 -0.1653462
00000000: 3e8b a0be 65d9 f3bd d8ea 363c 80d1 383d
00000010: 07ba 4abe 92ae f73b e4f7 963c 2b0b 9ebe
00000020: 6195 7fbe 0e56 c1be 3beb c1bb bbc2 2dbe
00000030: d0fd 49bd 02fc 25be 2072 2cbc 8450 29be

model.3.weight f4 [16]
0.8648065 0.8077804 0.67704016 0.4837212 0.915902 0.795214 0.6944738 0.7453964
0.6923211 0.85291934 0.7398953 0.7366027 0.603662 0.6170936 0.7268366 0.923413
00000000: f563 5d3f b2ca 4e3f 8152 2d3f 4eaa f73e
00000010: 8e78 6a3f 2593 4b3f 09c9 313f 4cd2 3e3f
00000020: f53b 313f ec58 5a3f c769 3d3f ff91 3c3f
00000030: 9889 1a3f d9f9 1d3f f711 3a3f cb64 6c3f

model.3.bias f4 [16]
-0.034530718 -0.055914246 -0.075273156 0.06265496 -0.019363092 -0.1693037 -0.044901304 0.0006409741
-0.051068924 0.0812118 0.10069351 0.031168664 0.0132112475 0.22289352 0.06368363 0.13230667
00000000: 1570 0dbd 5606 65bd d028 9abd 3e51 803d
00000010: 599f 9ebc f35d 2dbe 6eea 37bd 0b07 283a
00000020: a62d 51bd 5f52 a63d 6638 ce3d 6d55 ff3c
00000030: fd73 583c 333e 643e 906c 823d 667b 073e

model.3.running_mean f4 [16]
-0.38725352 -0.21630928 -0.05174192 0.09685302 -0.23503903 -0.0054051643 0.05018863 -0.3360513
-0.27197978 -0.33267444 0.030223198 -0.17024748 -0.043153644 -0.11236237 -0.063068636 -0.13975452
00000000: 1846 c6be 2e80 5dbe 56ef 53bd e05a c63d
00000010: 12ae 70be ce1d b1bb 9892 4d3d ea0e acbe
00000020: ef40 8bbe 4e54 aabe a496 f73c 5b55 2ebe
00000030: e0c1 30bd 3e1e e6bd 212a 81bd cf1b 0fbe

model.3.running_var f4 [16]
0.63425106 0.32862848 0.43041077 0.519102 0.15277083 0.19978653 0.29884434 0.28010008
0.18120007 0.57062733 0.31071305 0.15225953 0.23007175 0.58386576 0.10124241 0.41588187
00000000: 475e 223f fe41 a83e cd5e dc3e dee3 043f
00000010: f56f 1c3e d794 4c3e 2002 993e 4769 8f3e
00000020: 838c 393e a214 123f c815 9f3e ece9 1b3e
00000030: ee97 6b3e 3a78 153f 2e58 cf3d 78ee d43e

model.5.weight f4 [32, 16]
0.077133626 0.11104521 0.17230786 0.09111235 0.32380694 0.032965798 0.010870078 -0.11079635
-0.00574738 -0.13728406 0.17099592 -0.16480604 0.13340135 0.0464298 -0.0024587119 -0.17667212
0.19340149 -0.004870281 0.07813103 -0.12894164 0.10700355 0.11553045 -0.09326772 0.22501776
0.119493686 -0.065637864 -0.05861965 0.08135837 0.040864225 -0.039040554 -0.0979461 -0.051656894
-0.28505972 -0.02169017 -0.01667272 -0.05699874 0.07446627 0.16180217 0.10527002 -0.17915636
0.021467734 0.17213044 0.14169978 -0.025177144 -0.11088004 0.12192909 0.07680947 0.0059079514
0.18850963 0.13182417 0.06570691 -0.05983947 0.06397803 0.070630565 -0.06333392 0.13968064
-0.1160596 -0.12217062 0.113587745 0.14469486 -0.1078618 -0.14134702 -0.16117878 -0.1329758
0.01998906 0.15421374 0.20920339 -0.029252991 0.024637064 0.0012361284 -0.16072237 0.26467356
0.05522937 -0.1580095 0.041989744 0.018609704 -0.08459642 -0.018076403 -0.0885014 -0.1454082
-0.16360888 0.025893576 0.23607187 0.011127296 -0.21859892 -0.1712105 -0.16748442 0.10870759
0.037437245 0.13330297 0.01334515 0.059370976 -0.061158463 -0.20755644 -0.17479572 -0.13045421
0.2213111 -0.02408843 0.05280457 -0.0749474 0.087715074 0.033634342 -0.09471765 0.21093473
0.010315381 0.20650417 -0.0623146 -0.027919913 0.031050766 -0.040180124 -0.021788327 0.047544066
0.22308135 0.088706076 0.09575549 0.005674288 0.12759475 -0.15616457 0.030151015 0.09665302
0.13825603 0.06703713 -0.121336 0.101599775 -0.06542676 -0.23392643 -0.02325843 -0.30694196
0.05796191 0.17839988 0.14476067 -0.022338392 -0.090984784 0.19066913 0.1804632 -0.14775072
0.14122875 -0.069664866 -0.058114473 -0.2296522 -0.013703076 -0.015035797 -0.25627977 0.15328003
0.17584626 -0.024845602 -0.012695973 0.010303036 -0.27037328 -0.16780578 0.13340144 0.07514413
-0.093506224 0.08741445 0.1052438 -0.14509824 -0.073027864 0.08568612 0.08255173 0.032391485
-0.22799526 0.103659146 -0.12485158 0.12770358 -0.042541694 0.15368877 0.2803619 -0.053830553
-0.15846442 0.08602737 0.14029574 -0.06957132 0.06772695 0.21171835 -0.04586146 0.033465277
-0.016653586 -0.003637293 0.13356976 0.06551903 -0.11428511 -0.12586638 -0.11721653 0.049402155
-0.08317774 -0.08074645 0.124711834 0.13536766 -0.13299814 -0.09747818 0.09797352 -0.09585006
-0.007056289 0.024982927 -0.01713574 0.011435776 -0.09781605 -0.13904534 -0.09336827 -0.17551172
-0.09796987 -0.06270245 0.25040913 -0.18092929 -0.12289338 0.0965319 0.09857293 0.16990305
0.12256976 0.062936686 -0.11488381 -0.056635793 0.06792792 -0.009768527 -0.13238694 0.18752871
-0.12342239 -0.098781526 -0.18578136 0.08199959 -0.012502191 -0.06441546 -0.031643767 -0.1420272
-0.1809455 0.031401135 0.06854515 0.113216355 -0.02019155 -0.019185444 -0.07172471 -0.08397799
-0.03549263 0.13259356 0.15018684 -0.1516411 0.11325259 -0.028189406 0.19690743 0.26027527
0.026493449 0.18657832 -0.069868155 0.055493094 0.13209924 0.04137084 -0.09215062 -0.089262106
0.14827436 0.04119389 0.16343567 -0.2368381 -0.23446363 -0.020340195 0.066954866 -0.1553774
00000000: 3cf8 9d3d ac6b e33d 7971 303e 1d99 ba3d
00000010: 06ca a53e 2507 073d 6918 323c 32e9 e2bd
00000020: 8554 bcbb 3194 0cbe 8e19 2f3e eac2 28be
00000030: 5d9a 083e 2d2d 3e3d 5722 21bb 89e9 34be
00000040: 0a0b 463e e196 9fbb 2903 a03d 4709 04be
00000050: ad24 db3d 3b9b ec3d 2503 bfbd 0e6b 663e
00000060: 1bb9 f43d 256d 86bd 281b 70bd 389f a63d
00000070: 3f61 273d fde8 1fbd f797 c8bd 2e96 53bd
00000080: 59f3 91be 95af b1bc 3a95 88bc 8377 69bd
00000090: c681 983d 78af 253e cf97 d73d c474 37be
000000a0: 1add af3c f642 303e bf19 113e 4c40 cebc
000000b0: 1315 e3bd f5b5 f93d 494e 9d3d 7d97 c13b
000000c0: ab08 413e eafc 063e 5891 863d 3b1a 75bd
000000d0: ea06 833d c2a6 903d 37b5 81bd 7108 0f3e
000000e0: a8b0 edbd 9734 fabd b1a0 e83d e42a 143e
000000f0: a6e6 dcbd 46bd 10be 0d0c 25be cf2a 08be
00000100: 19c0 a33c 35ea 1d3e 6a39 563e f8a3 efbc
00000110: abd3 c93c 9605 a23a 6894 24be 4b83 873e
00000120: 3138 623d 3ecd 21be 70fd 2b3d 6173 983c
00000130: e340 adbd f714 94bc 3940 b5bd e3e5 14be
00000140: 1689 27be c41e d43c d3bc 713e 434f 363c
00000150: 65d8 5fbe ce51 2fbe 0981 2bbe 16a2 de3d
00000160: cc57 193d 9380 083e 9ea5 5a3c fb2e 733d
00000170: 4c81 7abd ad89 54be a6fd 32be ca95 05be
00000180: 619f 623e 1955 c5bc 9b49 583d 067e 99bd
00000190: f6a3 b33d 2ac4 093d 54fb c1bd 46ff 573e
000001a0: d801 293c d475 533e 983d 7fbd 4db8 e4bc
000001b0: 2d5e fe3c ea93 24bd 6f7d b2bc 91bd 423d
000001c0: 706f 643e 88ab b53d 741b c43d 61ef b93b
000001d0: 33a8 023e 9be9 1fbe 43ff f63c 05f2 c53d
000001e0: fd92 0d3e c34a 893d 027f f8bd 8b13 d03d
000001f0: 77fe 85bd 698a 6fbe 7788 bebc 7f27 9dbe
00000200: 7869 6d3d 75ae 363e 243c 143e 01ff b6bc
00000210: 3b56 babd c53e 433e 58cb 383e f74b 17be
00000220: 459e 103e 74ac 8ebd 7109 6ebd f229 6bbe
00000230: de82 60bc b458 76bc 1a37 83be 71f5 1c3e
00000240: 0b11 343e 0189 cbbc c502 50bc 11ce 283c
00000250: 5e6e 8abe 47d5 2bbe 639a 083e 2ae5 993d
00000260: 3180 bfbd 5906 b33d 108a d73d a294 14be
00000270: a28f 95bd 347c af3d e210 a93d efac 043d
00000280: 9777 69be 3f4b d43d 2fb2 ffbd bac4 023e
00000290: 3340 2ebd 9760 1d3e 988b 8f3e 6d7d 5cbd
000002a0: 7f44 22be 1e2f b03d b0a9 0f3e 697b 8ebd
000002b0: 6db4 8a3d b2cc 583e 3ad9 3bbd e312 093d
000002c0: 1a6d 88bc a65f 6ebb 83c6 083e d72e 863d
000002d0: 500e eabd 1ee3 00be 380f f0bd ea59 4a3d
000002e0: 1759 aabd 655e a5bd eb68 ff3d d29d 0a3e
000002f0: aa30 08be a4a2 c7bd 57a6 c83d 094d c4bd
00000300: 7138 e7bb ffa8 cc3c 4060 8cbc 1f5d 3b3c
00000310: c853 c8bd e761 0ebe dd37 bfbd 58b9 33be
00000320: 6da4 c8bd 246a 80bd a035 803e 8745 39be
00000330: 86af fbbd 84b2 c53d 9be0 c93d 11fb 2d3e
00000340: db05 fb3d f3e4 803d 3448 ebbd effa 67bd
00000350: cb1d 8b3d 2c0c 20bc 7190 07be 8707 403e
00000360: e1c4 fcbd f84d cabd 783d 3ebe 67ef a73d
00000370: fdd5 4cbc 41ec 83bd e59c 01bd 946f 11be
00000380: c749 39be 7a9e 003d 6661 8c3d fadd e73d
00000390: c068 a5bc cb2a 9dbc 68e4 92bd a7fc abbd
000003a0: b860 11bd 9bc6 073e 94ca 193e ce47 1bbe
000003b0: f9f0 e73d 78ed e6bc 1aa2 493e cd42 853e
000003c0: ca08 d93c 630e 3f3e 0917 8fbd ba4c 633d
000003d0: 0645 073e 7874 293d 77b9 bcbd 0dcf b6bd
000003e0: 3cd5 173e edba 283d ae5b 273e b085 72be
000003f0: 3c17 70be 7ba0 a6bc a21f 893d 411b 1fbe

model.5.bias f4 [32]
0.016935546 -0.03959749 0.042230424 -0.009986548 -0.2016694 -0.0011667892 -0.11660834 0.024348587
0.076919205 0.03354085 0.054832194 0.040501066 0.20060949 -0.19295977 0.039679453 0.039520457
0.1225979 0.11788515 -0.16210547 0.11689225 -0.23572783 -0.029447025 -0.16607049 -0.031747356
-0.04896687 -0.0058947555 -0.023684269 0.09777883 -0.020864163 0.026757598 -0.0898986 -0.026601166
00000000: 6abc 8a3c fa30 22bd cff9 2c3d 9e9e 23bc
00000010: 6c82 4ebe f3ee 98ba 5ad0 eebd b076 c73c
00000020: d187 9d3d 2162 093d b997 603d 72e4 253d
00000030: 936c 4d3e 3f97 45be ec86 223d 34e0 213d
00000040: 9c14 fb3d c56d f13d fafe 25be 3465 ef3d
00000050: a362 71be e33a f1bc 620e 2abe 8409 02bd
00000060: 7c91 48bd cb28 c1bb 8305 c2bc 4440 c83d
00000070: 52eb aabc c032 db3c c21c b8bd b0ea d9bc

model.7.weight f4 [32]
0.74307084 0.7443828 0.86408377 0.7254553 0.7595406 0.68021715 0.61064416 0.7241973
0.5873398 0.7299891 0.84002143 0.5490389 0.77591103 0.71580964 0.85132265 0.7473693
0.77112013 0.6418348 0.67607987 0.6735497 1.1343782 0.5912809 0.59304553 0.82630986
0.67885345 0.73150975 0.56871456 0.73092854 0.6343554 0.8071547 0.72098905 0.78051245
00000000: e439 3e3f df8f 3e3f 9834 5d3f 70b7 393f
00000010: 4171 423f b622 2e3f 2d53 1c3f ff64 393f
00000020: e75b 163f 91e0 3a3f a50b 573f d08d 0c3f
00000030: 1ba2 463f 4d3f 373f 48f0 593f 9853 3f3f
00000040: 2168 453f 494f 243f 9213 2d3f c16d 2c3f
00000050: 4e33 913f 2f5e 173f d5d1 173f 0b89 533f
00000060: 57c9 2d3f 3944 3b3f 4797 113f 221e 3b3f
00000070: 1e65 223f b1a1 4e3f bd92 383f aacf 473f

model.7.bias f4 [32]
-0.014819851 -0.04610169 0.07016311 -0.10359416 0.055530388 0.009139113 -0.11335359 -0.039799135
-0.14799418 -0.0007132708 0.08668685 -0.14636073 0.0050835833 -0.093990654 0.02609867 -0.097193666
0.055658888 -0.1382171 0.09180295 -0.0027163709 0.037177376 -0.00679957 -0.02908498 -0.035472747
-0.046493888 -0.02764981 -0.07793981 0.086973906 -0.07909138 -0.00412469 -0.012927126 0.044916864
00000000: f6ce 72bc 20d5 3cbd adb1 8f3d 2d29 d4bd
00000010: d573 633d 38bc 153c ed25 e8bd 6b04 23bd
00000020: c98b 17be cbfa 3aba e088 b13d 96df 15be
00000030: 3094 a63b 2c7e c0bd e1cc d53c 790d c7bd
00000040: 93fa 633d c988 0dbe 2f03 bc3d 2405 32bb
00000050: 4e47 183d edce debb a043 eebc df4b 11bd
00000060: 6070 3ebd db81 e2bc e89e 9fbd 601f b23d
00000070: a9fa a1bd 6828 87bb 4ccc 53bc bffa 373d

model.7.running_mean f4 [32]
0.09139842 0.055258438 0.12884022 0.0026202737 -0.17055447 -0.25497127 0.065547734 0.009220773
0.08150469 0.033917617 0.23246486 -0.037087366 0.14003818 -0.29047725 0.23472635 0.017066207
0.24199429 -0.025222208 -0.013356068 0.06582574 -0.051606588 0.034088854 -0.3002649 0.23081417
-0.14256446 0.3562106 -0.07944584 0.24786985 -0.05201923 0.23974405 -0.24944143 0.033809517
00000000: 182f bb3d ac56 623d b1ee 033e e6b8 2b3b
00000010: d5a5 2ebe 988b 82be e43d 863d ba12 173c
00000020: eeeb a63d 33ed 0a3d 450b 6e3e ece8 17bd
00000030: 2b66 0f3e 6fb9 94be 1b5c 703e 6ece 8b3c
00000040: 5acd 773e ce9e cebc 69d3 5abc a5cf 863d
00000050: 6e61 53bd c1a0 0b3d 52bc 99be 8d5a 6c3e
00000060: 6bfc 11be 3c61 b63e 80b4 a2bd 98d1 7d3e
00000070: 1e12 55bd 777f 753e 936d 7fbe d97b 0a3d

model.7.running_var f4 [32]
0.09809699 0.19529182 0.1954467 0.24417764 0.24914421 0.17108752 0.073856466 0.29316404
0.06644504 0.083711326 0.27549672 0.07288681 0.11916115 0.2150411 0.28546718 0.07104011
0.19786206 0.095089 0.273346 0.07525027 0.21430713 0.19479121 0.19551556 0.25306627
0.124046065 0.25781894 0.07962624 0.19143872 0.12215079 0.17743273 0.17203099 0.26141655
00000000: 13e7 c83d 94fa 473e 2e23 483e b409 7a3e
00000010: a91f 7f3e 9131 2f3e 0f42 973d 9919 963e
00000020: 5614 883d d870 ab3d e80d 8d3e ae45 953d
00000030: c30a f43d bc33 5c3e c128 923e 7a7d 913d
00000040: 5a9c 4a3e 06be c23d 02f4 8b3e d01c 9a3d
00000050: 5473 5b3e 5977 473e 3b35 483e e791 813e
00000060: dd0b fe3d d800 843e 1513 a33d 8308 443e
00000070: 322a fa3d edb0 353e e428 303e 64d8 853e

model.9.weight f4 [32, 32]
-0.09490375 -0.1410295 0.1216426 0.034750134 0.00748533 0.13369189 0.002863757 -0.02816
0.043435775 0.056152284 0.015035953 0.13454638 0.19099629 -0.077656776 0.0105788205 -0.06295575
0.10177505 -0.10482319 0.10264855 0.15037237 -0.19878718 0.1380978 0.03898211 0.10396361
0.0025517438 -0.13406232 0.12433021 0.20772442 0.0088879615 -0.19439282 0.017318724 0.075326785
-0.12991053 -0.020546824 0.09182932 0.034860823 -0.12954375 0.004491186 -0.0036616751 -0.198672
-0.19479606 0.017211892 0.11329274 -0.0019300716 -0.043965023 -0.017915776 0.22303145 0.065313436
0.03129476 -0.1665145 0.115821175 0.16493642 0.03969844 0.09926358 -0.044620924 0.084623694
-0.15476012 -0.032294534 0.17371725 -0.10091434 -0.10044918 -0.01574883 0.16172718 0.10433729
-0.0676698 -0.09393374 0.20815389 -0.0848272 -0.023445547 0.046073627 -0.073407955 0.07150635
-0.15058881 0.06640542 0.06392895 -0.005142414 -0.037381783 0.068084545 0.18075925 -0.19418204
0.05841892 0.022342274 0.12146992 0.12826988 -0.12503512 0.025513817 -0.014490419 0.03608113
-0.05554672 0.070081376 0.042025756 0.15943941 0.013872618 -0.091903165 0.07814111 0.12661874
-0.18890065 -0.09852699 -0.0021274334 0.07205249 0.04241114 0.2185143 0.025729658 0.15635923
-0.014985771 0.046237946 -0.03904205 -0.0084861005 0.03025665 0.010921111 -0.100835934 0.05118539
-0.09843782 0.052798 -0.19435996 0.1823094 -0.2548853 -0.18072206 0.07347621 -0.067968026
0.14997792 -0.1449215 -0.052268118 0.07622513 0.1503777 0.09257094 0.039276633 -0.07100864
0.036370475 0.2609709 -0.14680493 0.22821885 0.17224367 0.19487974 0.18523528 0.036022194
-0.036465324 0.23946999 -0.078750476 0.08422264 0.12866633 0.17199622 0.09272196 -0.04019691
-0.13494536 -0.003177577 -0.113917924 0.16611959 -0.15226075 -0.019059626 0.12369037 -0.14156157
0.15279917 -0.22742909 0.03262558 -0.08007296 0.09090891 0.09720728 0.13227615 0.026349617
-0.01707003 0.12386036 0.007902763 -0.078820236 -0.17698784 0.0005411895 -0.084892936 -0.013055756
0.009617932 0.07013063 0.24814959 0.06838799 -0.01993816 -0.025546787 0.1289093 -0.059293147
-0.009737854 0.10895771 0.21138453 0.08797111 0.061312545 -0.0787101 0.010065472 0.16948174
0.08606546 0.08052209 0.014421584 0.012190915 0.0014054088 -0.008735444 0.09055157 -0.045864712
-0.05828194 0.2237733 -0.023869097 0.26974928 0.17361723 0.19518572 0.14047153 -0.010544115
-0.13559337 0.11887038 -0.028918382 -0.01196329 -0.082756825 0.13328664 0.0824601 -0.036566168
-0.060416218 -0.027588312 0.000330789 -0.023998331 0.10088924 0.049571563 0.15011315 -0.03213043
0.14842309 -0.02949341 -0.13564324 0.021196492 -0.052406933 0.070431024 -0.1792884 0.0776695
-0.000537157 -0.03245507 0.21405417 -0.035908647 -0.052482914 0.09647265 -0.013943414 -0.01353225
-0.07924429 0.16576199 0.059060685 0.100259006 0.18389426 -0.00933929 0.08340625 0.0072913696
0.044770196 -0.07234334 0.19916679 0.10524307 -0.25907058 0.029573863 0.06553092 -0.014646866
-0.12232446 0.10107701 0.054540314 0.06981251 -0.057410464 -0.085473135 0.06276458 0.00916905
00000000: e65c c2bd 0a6a 10be c11f f93d 2856 0e3d
00000010: 8047 f53b 87e6 083e dfad 3b3b cdaf e6bc
00000020: b6e9 313d f0ff 653d 5c59 763c 87c6 093e
00000030: 8894 433e 840a 9fbd ca52 2d3c f2ee 80bd
00000040: 706f d03d 8aad d6bd 6739 d23d 37fb 193e
00000050: de8e 4bbe 8269 0d3e b4ab 1f3d e0ea d43d
00000060: 283b 273b a247 09be d6a0 fe3d b6b5 543e
00000070: d09e 113c e90e 47be ffdf 8d3c ee44 9a3d
00000080: 4407 05be d051 a8bc 0311 bc3d 39ca 0e3d
00000090: 1ea7 04be cc2a 933b b7f8 6fbb ac70 4bbe
000000a0: 9e78 47be f4ff 8c3c 0606 e83d 75fa fcba
000000b0: ab14 34bd 1bc4 92bc 5b62 643e 0dc3 853d
000000c0: ef2e 003d c782 2abe a733 ed3d 18e5 283e
000000d0: d59a 223d b44a cb3d 6ec4 36bd 304f ad3d
000000e0: 7079 1ebe 4647 04bd efe2 313e 2dac cebd
000000f0: 4db8 cdbd b103 81bc cf9b 253e caae d53d
00000100: 7796 8abd 5560 c0bd 4b26 553e e2b9 adbd
00000110: e010 c0bc b3b7 3c3d e956 96bd ec71 923d
00000120: f433 1abe 91ff 873d 2eed 823d b281 a8bb
00000130: a41d 19bd e96f 8b3d f418 393e a8d7 46be
00000140: ad48 6f3d 2507 b73c 39c5 f83d 2e59 033e
00000150: 3509 00be 5a02 d13c 3969 6dbc cfc9 133d
00000160: f584 63bd d386 8f3d 3323 2c3d 1644 233e
00000170: fa49 633c ba37 bcbd 7208 a03d 58a8 013e
00000180: 2c6f 41be 85c8 c9bd 696c 0bbb 4290 933d
00000190: 4eb7 2d3d 36c2 5f3e 01c7 d23c a21c 203e
000001a0: e186 75bc 0064 3d3d 8eea 1fbd 4909 0bbc
000001b0: cbdc f73c 76ee 323c 1283 cebd c6a7 513d
000001c0: c599 c9bd b742 583d 4c06 47be 51af 3a3e
000001d0: 5380 82be 340f 39be b27a 963d d232 8bbd
000001e0: d093 193e 4d66 14be 1817 56bd ec1b 9c3d
000001f0: 9dfc 193e d595 bd3d 89e0 203d fa6c 91bd
00000200: 35f9 143d fa9d 853e 0854 16be 34b2 693e
00000210: a560 303e 8e8e 473e 51ae 3d3e 028c 133d
00000220: aa5c 15bd 9f37 753e ee47 a1bd eb7c ac3d
00000230: 1bc1 033e c71f 303e 03e5 bd3d 84a5 24bd
00000240: 1e2f 0abe e53e 50bb cd4d e9bd 411b 2a3e
00000250: 3eea 1bbe ef22 9cbc 6051 fd3d 84f5 10be
00000260: 6377 1c3e 2ce3 68be 66a2 053d 4bfd a3bd
00000270: 732e ba3d 9c14 c73d 6673 073e 27db d73c
00000280: 73d6 8bbc 80aa fd3d 977a 013c 816c a1bd
00000290: 4d3c 35be 9dde 0d3a 59dc adbd cfe7 55bc
000002a0: 8894 1d3c a6a0 8f3d ed1a 7e3e 010f 8c3d
000002b0: 5a55 a3bc 7f47 d1bc cd00 043e 5fdd 72bd
000002c0: 858b 1fbc 3825 df3d 3075 583e 332a b43d
000002d0: dd22 7b3d c332 a1bd a6e9 243c 9f8c 2d3e
000002e0: 1743 b03d c4e8 a43d 8248 6c3c 67bc 473c
000002f0: b235 b83a 1c1f 0fbc 1a73 b93d a3dc 3bbd
00000300: 0bb9 6ebd d424 653e 2089 c3bc 941c 8a3e
00000310: b7c8 313e c4de 473e c5d7 0f3e 39c1 2cbc
00000320: fdd8 0abe 5072 f33d 3ee6 ecbc ad01 44bc
00000330: 697c a9bd 4b7c 083e d7e0 a83d 68c6 15bd
00000340: ff76 77bd e200 e2bc bf6d ad39 2698 c4bc
00000350: 059f ce3d 8d0b 4b3d 43b7 193e 339b 03bd
00000360: 39fc 173e 2a9c f1bc 10e6 0abe 44a4 ad3c
00000370: a7a8 56bd 243e 903d 6197 37be 3011 9f3d
00000380: ffcf 0cba 9cef 04bd 0431 5b3e f214 13bd
00000390: 53f8 56bd 7493 c53d eb72 64bc 5fb6 5dbc
000003a0: d54a a2bd 83bd 293e 9ee9 713d 9854 cd3d
000003b0: c74e 3c3e d203 19bc e5d0 aa3d 71ec ee3b
000003c0: f460 373d bf28 94bd 61f2 4b3e ae89 d73d
000003d0: e6a4 84be e344 f23c 1335 863d 69f9 6fbc
000003e0: 3f85 fabd 7701 cf3d aa65 5f3d dcf9 8e3d
000003f0: 3c27 6bbd 8a0c afbd b78a 803d c839 163c

model.9.bias f4 [32]
0.08435184 0.09057011 0.19796692 -0.09879621 0.17338352 -0.045129344 0.030922314 0.10464609
0.021811737 0.14560306 0.003125817 -0.08665803 0.037969407 0.109203614 0.18923424 -0.08131422
0.05420454 -0.028528752 -0.13316438 0.19183466 0.02258633 -0.023802912 0.12946394 0.02793891
0.098894045 0.018967409 -0.11777409 0.09096297 0.051561452 0.0909052 -0.07233691 0.1548258
00000000: a8c0 ac3d d27c b93d d7b7 4a3e ab55 cabd
00000010: 738b 313e 8cd9 38bd cb50 fd3c b050 d63d
00000020: 87ae b23c f818 153e 82da 4c3b c479 b1bd
00000030: cf85 1b3d 25a6 df3d 9fc6 413e 1288 a6bd
00000040: 9405 5e3d 21b5 e9bc 3e5c 08be 4e70 443e
00000050: f806 b93c 53fe c2bc 3292 043e 24e0 e43c
00000060: f688 ca3d 8a61 9b3c 8b33 f1bd cb4a ba3d
00000070: 1a32 533d 812c ba3d 6025 94bd a88a 1e3e

model.11.weight f4 [32]
0.78751 0.8488406 0.8686155 0.74255216 0.946198 0.68971044 0.78795934 0.7583488
0.72097313 0.87942046 0.9245231 0.71053404 0.8669403 0.8103384 0.8641591 0.73912466
0.82208496 0.8791309 0.9010122 0.8947331 0.93091154 0.69672287 0.69899476 0.89867675
0.9068327 0.8846754 0.74254054 0.6704962 0.81036395 0.8536507 0.6742263 0.8277076
00000000: 419a 493f 9e4d 593f 965d 5e3f e617 3e3f
00000010: 083a 723f dd90 303f b4b7 493f 2623 423f
00000020: b291 383f b321 613f 8cad 6c3f 8fe5 353f
00000030: cdef 5d3f 5672 4f3f 8839 5d3f 4637 3d3f
00000040: 2974 523f b90e 613f bca8 663f 3a0d 653f
00000050: 3850 6e3f 6e5c 323f 52f1 323f ae0f 663f
00000060: 3026 683f 167a 623f 2317 3e3f a4a5 2b3f
00000070: 0374 4f3f da88 5a3f 189a 2c3f a5e4 533f

model.11.bias f4 [32]
-0.11398203 -0.07909713 -0.05532345 -0.1787868 -0.097359635 -0.192679 -0.13807486 -0.10765289
-0.1990049 -0.10712684 -0.03151259 -0.16177619 -0.078434385 -0.12001793 -0.06034738 -0.14211367
-0.11321002 -0.07230001 -0.08796076 -0.029329203 -0.059048854 -0.17147717 -0.19626212 -0.08290558
-0.025461072 -0.028524164 -0.16805032 -0.20794639 -0.16978194 -0.10252458 -0.21229409 -0.18073623
00000000: 696f e9bd adfd a1bd d89a 62bd e313 37be
00000010: 7d64 c7bd a54d 45be 7f63 0dbe 1e79 dcbd
00000020: f1c7 4bbe 5165 dbbd 5813 01bd a8a8 25be
00000030: 35a2 a0bd f6cb f5bd d02e 77bd 3f86 11be
00000040: a8da e7bd 0712 94bd c524 b4bd cc43 f0bc
00000050: 36dd 71bd b697 2fbe f0f8 48be 67ca a9bd
00000060: bd93 d0bc 82ab e9bc 6215 2cbe e6ef 54be
00000070: 51db 2dbe 68f8 d1bd 9f63 59be eb12 39be

model.11.running_mean f4 [32]
0.2817518 0.19223796 0.45257697 -0.21947592 0.39292276 0.22739191 0.31091353 0.35615134
-0.28814417 0.28608263 0.54219294 -0.06863908 0.13212144 0.18054917 0.40104762 -0.2883334
-0.06340988 0.3164393 -0.30134445 0.37608474 -0.2902842 -0.049168214 0.13468984 -0.1821379
0.33344936 0.35299107 -0.2636576 -0.11466979 -0.3646341 -0.19523944 -0.34373224 0.025041047
00000000: c641 903e 07da 443e 2bb8 e73e 4cbe 60be
00000010: 2c2d c93e 6dd9 683e 0f30 9f3e 7859 b63e
00000020: a287 93be 6c79 923e 28cd 0a3f a592 8cbd
00000030: d84a 073e e2e1 383e 1d56 cd3e 6fa0 93be
00000040: 0add 81bd 5504 a23e d249 9abe 2e8e c03e
00000050: 21a0 94be 9c64 49bd 22ec 093e 5c82 3abe
00000060: e0b9 aa3e 3fbb b43e 21fe 86be ffd7 eabd
00000070: 52b1 babe d9ec 47be acfd afbe e222 cd3c

model.11.running_var f4 [32]
0.63510144 0.5577585 0.78505373 0.57185626 0.9097777 0.310769 0.4317535 0.6949762
0.4127949 0.49412802 0.90254164 0.17281552 0.75497204 0.6002972 0.6411812 0.4935223
0.36578244 0.59483933 0.91731197 0.9029988 0.6134678 0.32719773 0.23145494 0.6666081
0.5248473 0.89317775 0.22556289 0.12419962 0.33445883 0.5631949 0.38300595 0.63906395
00000000: 0296 223f 43c9 0e3f 48f9 483f 2c65 123f
00000010: 31e7 683f 1d1d 9f3e cb0e dd3e f6e9 313f
00000020: da59 d33e 59fe fc3e f80c 673f 8df6 303e
00000030: d945 413f 14ad 193f 7324 243f f4ae fc3e
00000040: d647 bb3e 6447 183f f5d4 6a3f ee2a 673f
00000050: 3a0c 1d3f 7686 a73e 8602 6d3e d4a6 2a3f
00000060: 655c 063f 4ca7 643f f5f9 663e 5f5c fe3d
00000070: 303e ab3e 8a2d 103f 5b19 c43e b299 233f

model.13.weight f4 [16, 32]
0.071016386 0.10333653 0.022273421 0.15417093 -0.0070650103 0.011166077 0.16023095 0.10853484
-0.09361258 0.15920782 0.0148734925 -0.03390782 0.13951336 -0.10416616 0.10418469 0.14394484
-0.14515503 -0.10956351 -0.18583325 -0.06796086 -0.13190632 -0.08381087 0.039576728 0.13155092
0.054557618 0.05283358 0.041789968 -0.14313167 -0.13699833 -0.0047810446 0.10318096 0.034222648
-0.022859102 -0.077720255 -0.072438926 -0.074891485 0.23409043 -0.004401151 -0.05464549 0.004937555
0.062341288 0.10789483 0.04878795 0.117765106 -0.1276993 -0.107823156 0.0250064 -0.13558984
-0.14433792 0.25097516 0.086560145 -0.08148126 0.06885226 -0.11458288 0.18841842 0.08596917
-0.103807196 -0.13361122 0.17191903 -0.017966075 0.015292481 -0.0051907236 -0.08619357 0.14317115
0.12796935 -0.0595879 0.032821063 -0.12901181 -0.10253521 0.14632219 -0.027062254 0.14884685
-0.045399714 -0.13080122 -0.08623646 0.16583058 -0.104269184 0.12008979 0.0808606 0.049594544
0.12000533 -0.065243326 0.061650522 -0.10584305 -0.067614615 0.12823822 0.040087346 -0.053082127
-0.012520496 -0.075357474 0.053374752 -0.006243528 0.02620225 0.05518409 0.10340909 -0.084757626
-0.023038602 0.10197052 0.11108442 -0.12187653 -0.24536642 0.031177662 0.0132671 0.08209252
0.08975282 -0.24668796 0.1293592 -0.113728926 0.087153606 0.12914467 0.046907753 0.14037047
-0.10176316 -0.2318212 -0.24528587 0.13459736 -0.05082915 -0.1229409 0.04569604 0.05495305
-0.13627288 0.15896352 -0.022953402 0.031789515 0.14404693 0.14097758 0.10246316 0.038967807
0.12267505 0.02442882 -0.12581336 0.022504857 -0.15615137 0.06873825 -0.008427122 0.058251936
-0.12746646 -0.16471812 0.18103212 0.08927597 0.096502446 -0.041659746 -0.025728408 -0.02527119
0.1450692 -0.11057356 0.07241908 0.15496224 -0.23226717 0.019757943 -0.043452438 -0.15635885
0.119087584 0.020563504 0.13549812 -0.080387704 0.08448184 -0.14300245 -0.041823026 -0.052398954
0.18588926 0.08868051 -0.11313635 0.024601322 -0.10452546 0.02730571 -0.15400122 0.0052701533
0.12098548 -0.17922659 -0.112073295 0.038549926 0.033511512 -0.02131354 0.15507825 -0.07770212
-0.077119716 -0.1356343 -0.03859047 -0.009144906 0.06137304 0.012569459 0.059362758 -0.09834284
0.18007714 0.18308204 -0.14179711 -0.014469983 -0.13547248 0.08693302 -0.09965487 -0.12109167
0.14890347 -0.12551907 0.12317953 -0.008998212 0.060716253 -0.08594229 0.048435453 6.443076e-05
-0.001140673 0.022969062 -0.15157385 -0.10557271 0.16605431 -0.06864838 -0.087780625 -0.023330333
-0.039896272 -0.078083895 -0.16582459 0.082148366 -0.17406103 0.011943263 0.0638693 -0.038987048
0.045791253 0.053538915 -0.102335155 -0.028688144 -0.07008083 -0.12137484 -0.09501117 0.1394358
0.011089606 0.04767747 0.13478945 -0.026778843 -0.12622726 -0.10757243 -0.101480424 0.105447
-0.15716965 -0.078435525 0.10654417 0.13827594 0.048679303 0.033872187 0.11225871 0.09112416
0.07415288 -0.090618394 -0.1734653 -0.014028803 -0.10333825 0.023064533 -0.032710854 0.010566685
0.14634691 -0.041461598 -0.17686036 -0.06878359 -0.08531337 0.09577863 -0.073647 -0.079301886
00000000: 0a71 913d 1aa2 d33d c076 b63c fcde 1d3e
00000010: 9a81 e7bb ecf1 363c 9513 243e 8447 de3d
00000020: f4b7 bfbd 6007 233e f3af 733c ede2 0abd
00000030: 97dc 0e3e 1155 d5bd c85e d53d 4766 133e
00000040: 85a3 14be d562 e0bd 124b 3ebe 102f 8bbd
00000050: 7312 07be 09a5 abbd 351b 223d 49b5 063e
00000060: cf77 5f3d 0668 583d f52b 2b3d 1c91 12be
00000070: 4a49 0cbe 4faa 9cbb 8a50 d33d 0c2d 0c3d
00000080: 0343 bbbc cc2b 9fbd dc5a 94bd b560 99bd
00000090: 67b5 6f3e 8837 90bb f3d3 5fbd 37cb a13b
000000a0: 9459 7f3d f7f7 dc3d e0d5 473d d52e f13d
000000b0: 9bc3 02be 63d2 dcbd 39da cc3c 10d8 0abe
000000c0: 52cd 13be d17f 803e 7246 b13d a6df a6bd
000000d0: 6a02 8d3d 6eaa eabd c2f0 403e 9b10 b03d
000000e0: de98 d4bd 61d1 08be 8b0b 303e 972d 93bc
000000f0: 508d 7a3c f216 aabb 4186 b0bd 759b 123e
00000100: 660a 033e 7112 74bd 616f 063d ac1b 04be
00000110: fbfd d1bd 7cd5 153e a9b1 ddbc 4f6b 183e
00000120: 0df5 39bd c1f0 05be be9c b0bd 7ecf 293e
00000130: 158b d5bd a3f1 f53d 3e9a a53d a623 4b3d
00000140: 5bc5 f53d 4b9e 85bd 4285 7c3d 3ec4 d8bd
00000150: 8879 8abd e150 033e a132 243d a56c 59bd
00000160: c422 4dbc 0555 9abd 7c9f 5a3d 8296 ccbb
00000170: 1aa6 d63c b608 623d 25c8 d33d 6895 adbd
00000180: 73bb bcbc ecd5 d03d 3a80 e33d 679a f9bd
00000190: 5641 7bbe 4c68 ff3c 405e 593c 2020 a83d
000001a0: 54d0 b73d c59b 7cbe bd76 043e b6ea e8bd
000001b0: 977d b23d 803e 043e 5822 403d 47bd 0f3e
000001c0: 3469 d0bd 8962 6dbe 382c 7bbe e4d3 093e
000001d0: 3a32 50bd 70c8 fbbd c52b 3b3d 7316 613d
000001e0: 1e8b 0bbe 55c7 223e c608 bcbc b935 023d
000001f0: 0a81 133e 6d5c 103e 35d8 d13d b59c 1f3d
00000200: 0e3d fb3d f31e c83c 38d5 00be 1b5c b83c
00000210: 25e6 1fbe a4c6 8c3d e911 0abc 9599 6e3d
00000220: 9186 02be deab 28be 7c60 393e 52d6 b63d
00000230: 13a3 c53d 69a3 2abd 62c4 d2bc 8705 cfbc
00000240: 058d 143e 6474 e2bd 7450 943d 6cae 1e3e
00000250: 72d7 6dbe 69db a13c 2ffb 31bd 891c 20be
00000260: 31e4 f33d cb74 a83c 05c0 0a3e 4fa2 a4bd
00000270: d104 ad3d 3c6f 12be 9f4e 2bbd 49a0 56bd
00000280: c159 3e3e 219e b53d 08b4 e7bd b688 c93c
00000290: 7211 d6bd 39b0 df3c 7fb2 1dbe 40b1 ac3b
000002a0: 3cc7 f73d 2d87 37be af86 e5bd 87e6 1d3d
000002b0: 5e43 093d bc99 aebc d5cc 1e3e 4a22 9fbd
000002c0: f1f0 9dbd b8e3 0abe 0a11 1ebd 84d4 15bc
000002d0: 4c62 7b3d 22f0 4d3c 5d26 733d f967 c9bd
000002e0: 2466 383e dc79 3b3e 4333 11be 8213 6dbc
000002f0: 4cb9 0abe f009 b23d da17 ccbd e9fe f7bd
00000300: 277a 183e 1288 00be 8d45 fc3d 3d6d 13bc
00000310: 9bb1 783d 8302 b0bd 4164 463d 001f 8738
00000320: a282 95ba 9d29 bc3c 2d36 1bbe 8136 d8bd
00000330: 240a 2a3e 8697 8cbd 54c6 b3bd 411f bfbc
00000340: 466a 23bd 73ea 9fbd eccd 29be 673d a83d
00000350: 0e3d 32be adad 433c e8cd 823d e2b0 1fbd
00000360: 9c8f 3b3d 9f4b 5b3d 1895 d1bd 6603 ebbc
00000370: 8a86 8fbd 5f93 f8bd 3795 c2bd 42c8 0e3e
00000380: 2eb1 353c 7349 433d 3f06 0a3e 4e5f dbbc
00000390: b841 01be ef4e dcbd f8d4 cfbd 99f4 d73d
000003a0: 15f1 20be cea2 a0bd d433 da3d 3598 0d3e
000003b0: f363 473d 90bd 0a3d e5e7 e53d 4e9f ba3d
000003c0: 77dd 973d 2396 b9bd e3a0 31be 11d9 65bc
000003d0: 01a3 d3bd d5f1 bc3c d1fb 05bd e41f 2d3c
000003e0: f7db 153e a3d3 29bd e21a 35be 69de 8cbd
000003f0: c7b8 aebd 9627 c43d 3dd4 96bd 0769 a2bd

model.13.bias f4 [16]
-0.06484281 -0.021766879 -0.012073763 -0.16001877 -0.09631043 0.024428824 0.10487925 -0.049188003
0.09406698 -0.029543584 -0.07186903 -0.1421053 0.09581491 0.16529854 -0.00904555 0.14297757
00000000: 4fcc 84bd 7450 b2bc 08d1 45bc f6db 23be
00000010: 673e c5bd f51e c83c efca d63d 5c79 49bd
00000020: 30a6 c03d 6305 f2bc 1230 93bd 0d84 11be
00000030: 9c3a c43d 0544 293e c933 14bc b668 123e

model.14.weight f4 [1, 16]
0.0040404648 0.06847631 -0.014191319 -0.1377201 -0.078977704 -0.033915494 -0.008349561 -0.07055261
-0.030456256 0.00305365 -0.1099176 0.02039635 -0.015193453 -0.021803197 0.0031085913 0.024289692
00000000: e065 843b 4f3d 8c3d b582 68bc 7f06 0dbe
00000010: 10bf a1bd f9ea 0abd 99cc 08bc e37d 90bd
00000020: 667f f9bc bf1f 483b 7b1c e1bd 3f16 a73c
00000030: f6ed 78bc 9e9c b2bc 82b9 4b3b 2dfb c63c
